distribution/gp_model_test.pt (torch, 21058 bytes, 16 tensors)

lh.raw_task_noises f4 [5]
0	0xbff49365	-1.9107481
1	0xc0d38628	-6.6101265
2	0xc12ba1e8	-10.727028
3	0xc10814b5	-8.505055
4	0xc02e901b	-2.7275455

gp.likelihood.raw_task_noises f4 [5]
0	0xbff49365	-1.9107481
1	0xc0d38628	-6.6101265
2	0xc12ba1e8	-10.727028
3	0xc10814b5	-8.505055
4	0xc02e901b	-2.7275455

gp.covar_module.task_covar_module.covar_factor f4 [5, 1]
0	0xbf932423	-1.1495403
1	0xbf362dde	-0.7116374
2	0xbf6607b8	-0.8985553
3	0xbf340353	-0.7031757
4	0xbf4578dc	-0.7713754

gp.covar_module.task_covar_module.raw_var f4 [5]
0	0xc104cd2d	-8.300092
1	0xbf0909ed	-0.5353077
2	0xc0e66894	-7.200266
3	0xbf447174	-0.76735616
4	0xc0f926f9	-7.7860074

gp.covar_module.data_covar_module.kernels.0.raw_lengthscale f4 [1, 5]
0	0x41347a17	11.279807
1	0x4123822d	10.219281
2	0x412bd46a	10.739359
3	0xbe8a9604	-0.27067578
4	0xbe05fdc5	-0.13085087

gp.covar_module.data_covar_module.kernels.1.raw_lengthscale f4 [1, 5]
0	0x410574d4	8.3410225
1	0x40e61804	7.1904316
2	0x412cbdf5	10.796376
3	0x416bb1ca	14.730906
4	0x41cff6a1	25.995424

gp.covar_module.data_covar_module.kernels.1.raw_period_length f4 [1, 5]
0	0x3ed9978e	0.4249844
1	0xbeb65512	-0.35611778
2	0x41308017	11.031272
3	0x40bd88ae	5.9229345
4	0xbf8f3095	-1.1186701

gp.covar_module.data_covar_module.kernels.2.raw_lengthscale f4 [1, 5]
0	0x40bf09dc	5.9699535
1	0x40c85857	6.2607837
2	0x40ff7116	7.9825544
3	0x402bfa05	2.687135
4	0x40c93bbd	6.2885423

mll.likelihood.raw_task_noises f4 [5]
0	0xbff49365	-1.9107481
1	0xc0d38628	-6.6101265
2	0xc12ba1e8	-10.727028
3	0xc10814b5	-8.505055
4	0xc02e901b	-2.7275455

mll.model.likelihood.raw_task_noises f4 [5]
0	0xbff49365	-1.9107481
1	0xc0d38628	-6.6101265
2	0xc12ba1e8	-10.727028
3	0xc10814b5	-8.505055
4	0xc02e901b	-2.7275455

mll.model.covar_module.task_covar_module.covar_factor f4 [5, 1]
0	0xbf932423	-1.1495403
1	0xbf362dde	-0.7116374
2	0xbf6607b8	-0.8985553
3	0xbf340353	-0.7031757
4	0xbf4578dc	-0.7713754

mll.model.covar_module.task_covar_module.raw_var f4 [5]
0	0xc104cd2d	-8.300092
1	0xbf0909ed	-0.5353077
2	0xc0e66894	-7.200266
3	0xbf447174	-0.76735616
4	0xc0f926f9	-7.7860074

mll.model.covar_module.data_covar_module.kernels.0.raw_lengthscale f4 [1, 5]
0	0x41347a17	11.279807
1	0x4123822d	10.219281
2	0x412bd46a	10.739359
3	0xbe8a9604	-0.27067578
4	0xbe05fdc5	-0.13085087

mll.model.covar_module.data_covar_module.kernels.1.raw_lengthscale f4 [1, 5]
0	0x410574d4	8.3410225
1	0x40e61804	7.1904316
2	0x412cbdf5	10.796376
3	0x416bb1ca	14.730906
4	0x41cff6a1	25.995424

mll.model.covar_module.data_covar_module.kernels.1.raw_period_length f4 [1, 5]
0	0x3ed9978e	0.4249844
1	0xbeb65512	-0.35611778
2	0x41308017	11.031272
3	0x40bd88ae	5.9229345
4	0xbf8f3095	-1.1186701

mll.model.covar_module.data_covar_module.kernels.2.raw_lengthscale f4 [1, 5]
0	0x40bf09dc	5.9699535
1	0x40c85857	6.2607837
2	0x40ff7116	7.9825544
3	0x402bfa05	2.687135
4	0x40c93bbd	6.2885423
