distribution/gp_model_test.pt (torch, 16304 bytes, 18 tensors)

lh.second_noise_covar.raw_noise f4 [4, 1]
-10.942877 5.676941 -8.206823 -10.89379
00000000: 0616 2fc1 80a9 b540 264f 03c1 f74c 2ec1

gp.likelihood.second_noise_covar.raw_noise f4 [4, 1]
-10.942877 5.676941 -8.206823 -10.89379
00000000: 0616 2fc1 80a9 b540 264f 03c1 f74c 2ec1

gp.mean_module.raw_constant f4 [4]
-6.848593 -5.605973 -3.767855 -3.744884
00000000: ad27 dbc0 2164 b3c0 8924 71c0 2eac 6fc0

gp.covar_module.raw_outputscale f4 [4]
3.053362 -5.632346 2.6840885 2.4410005
00000000: 486a 4340 2e3c b4c0 1bc8 2b40 5a39 1c40

gp.covar_module.base_kernel.kernels.0.raw_lengthscale f4 [4, 1, 1]
5.9909573 -1.2718741 -1.535211 -0.5578004
00000000: ecb5 bf40 c5cc a2bf cb81 c4bf 02cc 0ebf

gp.covar_module.base_kernel.kernels.1.raw_lengthscale f4 [4, 1, 1]
11.294568 -8.706059 -3.0320473 -0.34449923
00000000: 8db6 3441 054c 0bc1 100d 42c0 3462 b0be

gp.covar_module.base_kernel.kernels.1.raw_period_length f4 [4, 1, 1]
6.755488 0.60443604 6.872663 1.7880269
00000000: f52c d840 52bc 1a3f dbec db40 11de e43f

gp.covar_module.base_kernel.kernels.2.raw_lengthscale f4 [4, 1, 1]
-1.0639737 4.4790025 -1.3014482 -0.8426641
00000000: 4a30 88bf fd53 8f40 db95 a6bf d6b8 57bf

gp.covar_module.base_kernel.kernels.3.raw_offset f4 [4, 1]
-5.5884123 -4.0516295 -8.749296 -5.8685093
00000000: 46d4 b2c0 f3a6 81c0 1efd 0bc1 d4ca bbc0

mll.likelihood.second_noise_covar.raw_noise f4 [4, 1]
-10.942877 5.676941 -8.206823 -10.89379
00000000: 0616 2fc1 80a9 b540 264f 03c1 f74c 2ec1

mll.model.likelihood.second_noise_covar.raw_noise f4 [4, 1]
-10.942877 5.676941 -8.206823 -10.89379
00000000: 0616 2fc1 80a9 b540 264f 03c1 f74c 2ec1

mll.model.mean_module.raw_constant f4 [4]
-6.848593 -5.605973 -3.767855 -3.744884
00000000: ad27 dbc0 2164 b3c0 8924 71c0 2eac 6fc0

mll.model.covar_module.raw_outputscale f4 [4]
3.053362 -5.632346 2.6840885 2.4410005
00000000: 486a 4340 2e3c b4c0 1bc8 2b40 5a39 1c40

mll.model.covar_module.base_kernel.kernels.0.raw_lengthscale f4 [4, 1, 1]
5.9909573 -1.2718741 -1.535211 -0.5578004
00000000: ecb5 bf40 c5cc a2bf cb81 c4bf 02cc 0ebf

mll.model.covar_module.base_kernel.kernels.1.raw_lengthscale f4 [4, 1, 1]
11.294568 -8.706059 -3.0320473 -0.34449923
00000000: 8db6 3441 054c 0bc1 100d 42c0 3462 b0be

mll.model.covar_module.base_kernel.kernels.1.raw_period_length f4 [4, 1, 1]
6.755488 0.60443604 6.872663 1.7880269
00000000: f52c d840 52bc 1a3f dbec db40 11de e43f

mll.model.covar_module.base_kernel.kernels.2.raw_lengthscale f4 [4, 1, 1]
-1.0639737 4.4790025 -1.3014482 -0.8426641
00000000: 4a30 88bf fd53 8f40 db95 a6bf d6b8 57bf

mll.model.covar_module.base_kernel.kernels.3.raw_offset f4 [4, 1]
-5.5884123 -4.0516295 -8.749296 -5.8685093
00000000: 46d4 b2c0 f3a6 81c0 1efd 0bc1 d4ca bbc0
